==========================================================================================
Layer (type:depth-idx)                   Output Shape              Param #
==========================================================================================
ArousalApneaUENNModel                    [8, 1, 30000]             --
├─USleep_5min_Encoder: 1-1               [8, 8, 30000]             --
│    └─Down: 2-1                         [8, 15, 15000]            --
│    │    └─Sequential: 3-1              [8, 15, 15000]            1,815
│    └─Down: 2-2                         [8, 18, 7500]             --
│    │    └─Sequential: 3-2              [8, 18, 7500]             3,078
│    └─Down: 2-3                         [8, 21, 3750]             --
│    │    └─Sequential: 3-3              [8, 21, 3750]             4,221
│    └─Down: 2-4                         [8, 24, 1875]             --
│    │    └─Sequential: 3-4              [8, 24, 1875]             5,544
│    └─Up: 2-5                           [8, 21, 3750]             --
│    │    └─ConvTranspose1d: 3-5         [8, 21, 3750]             1,029
│    │    └─Sequential: 3-6              [8, 21, 3750]             6,741
│    └─Up: 2-6                           [8, 18, 7500]             --
│    │    └─ConvTranspose1d: 3-7         [8, 18, 7500]             774
│    │    └─Sequential: 3-8              [8, 18, 7500]             4,968
│    └─Up: 2-7                           [8, 15, 15000]            --
│    │    └─ConvTranspose1d: 3-9         [8, 15, 15000]            555
│    │    └─Sequential: 3-10             [8, 15, 15000]            3,465
│    └─OutConv: 2-8                      [8, 8, 30000]             --
│    │    └─ConvTranspose1d: 3-11        [8, 8, 30000]             248
│    │    └─Sequential: 3-12             [8, 8, 30000]             688
├─USleep_5min_Decoder: 1-2               [8, 1, 30000]             --
│    └─LSTM: 2-9                         [8, 30000, 64]            18,944
│    └─LSTM: 2-10                        [8, 30000, 64]            33,280
│    └─Linear: 2-11                      [8, 30000, 1]             65
│    └─Sigmoid: 2-12                     [8, 1, 30000]             --
├─USleep_5min_Decoder: 1-3               [8, 1, 30000]             --
│    └─LSTM: 2-13                        [8, 30000, 64]            18,944
│    └─LSTM: 2-14                        [8, 30000, 64]            33,280
│    └─Linear: 2-15                      [8, 30000, 1]             65
│    └─Sigmoid: 2-16                     [8, 1, 30000]             --
==========================================================================================
Total params: 137,704
Trainable params: 137,704
Non-trainable params: 0
Total mult-adds (G): 27.52
==========================================================================================
Input size (MB): 7.68
Forward/backward pass size (MB): 960.24
Params size (MB): 0.55
Estimated Total Size (MB): 968.47
…
