==========================================================================================
Layer (type:depth-idx)                   Output Shape              Param #
==========================================================================================
ULstmAutoencoder_5min                    [16, 1, 30000]            --
¢u¢wUSleep_5min_Encoder: 1-1               [16, 5, 30000]            --
¢x    ¢|¢wDown: 2-1                         [16, 15, 15000]           --
¢x    ¢x    ¢|¢wSequential: 3-1              [16, 15, 15000]           1,590
¢x    ¢|¢wDown: 2-2                         [16, 18, 7500]            --
¢x    ¢x    ¢|¢wSequential: 3-2              [16, 18, 7500]            3,078
¢x    ¢|¢wDown: 2-3                         [16, 21, 3750]            --
¢x    ¢x    ¢|¢wSequential: 3-3              [16, 21, 3750]            4,221
¢x    ¢|¢wDown: 2-4                         [16, 24, 1875]            --
¢x    ¢x    ¢|¢wSequential: 3-4              [16, 24, 1875]            5,544
¢x    ¢|¢wUp: 2-5                           [16, 21, 3750]            --
¢x    ¢x    ¢|¢wConvTranspose1d: 3-5         [16, 21, 3750]            1,029
¢x    ¢x    ¢|¢wSequential: 3-6              [16, 21, 3750]            6,741
¢x    ¢|¢wUp: 2-6                           [16, 18, 7500]            --
¢x    ¢x    ¢|¢wConvTranspose1d: 3-7         [16, 18, 7500]            774
¢x    ¢x    ¢|¢wSequential: 3-8              [16, 18, 7500]            4,968
¢x    ¢|¢wUp: 2-7                           [16, 15, 15000]           --
¢x    ¢x    ¢|¢wConvTranspose1d: 3-9         [16, 15, 15000]           555
¢x    ¢x    ¢|¢wSequential: 3-10             [16, 15, 15000]           3,465
¢x    ¢|¢wOutConv: 2-8                      [16, 5, 30000]            --
¢x    ¢x    ¢|¢wConvTranspose1d: 3-11        [16, 5, 30000]            155
¢x    ¢x    ¢|¢wSequential: 3-12             [16, 5, 30000]            280
¢u¢wUSleep_5min_Decoder: 1-2               [16, 1, 30000]            --
¢x    ¢|¢wLSTM: 2-9                         [16, 30000, 64]           18,176
¢x    ¢|¢wLSTM: 2-10                        [16, 30000, 128]          66,560
¢x    ¢|¢wLinear: 2-11                      [16, 30000, 1]            129
¢x    ¢|¢wSigmoid: 2-12                     [16, 1, 30000]            --
==========================================================================================
Total params: 117,265
Trainable params: 117,265
Non-trainable params: 0
Total mult-adds (G): 45.24
==========================================================================================
Input size (MB): 9.60
Forward/backward pass size (MB): 1613.28
Params size (MB): 0.47
Estimated Total Size (MB): 1623.35
…
